…
 tf.keras.layers.Dense(4096,activation=&#x27;relu&#x27;), # 随机失活 tf.keras.layers.Dropout(0.5), # 输出层：10个神经元，激活函数softmax tf.keras.layers.Dense(10,activation=&#x27;softmax&#x27;)]) 我们构造一个高和宽均为 227 的单通道数据样本来看一下模型的架构： 12345# 构造输入X，并将其送入到net网络中X = tf.random.uniform((1,227,227,1)y = net(X)# 通过net.summay()查看网络的形状net.summay() 网络架构如下： 123456789101112131415161718192021222324252627282930313233343536Model: &quot;sequential&quot;_________________________________________________________________Layer (type) Output Shape Param # =================================================================conv2d (Conv2D) (1, 55, 55, 96) 11712 _________________________________________________________________max_pooling2d (MaxPooling2D) (1, 27, 27, 96) 0 _________________________________________________________________conv2d_1 (Conv2D) (1, 27, 27, 256) 614656 _________________________________________________________________max_pooling2d_1 (MaxPooling2 (1, 13, 13, 256) 0 _________________________________________________________________conv2d_2 (Conv2D) (1, 13, 13, 384) 885120 _________________________________________________________________conv2d_3 (Conv2D) (1, 13, 13, 384) 1327488 _________________________________________________________________conv2d_4 (Conv2D) (1, 13, 13, 256) 884992 _________________________________________________________________max_pooling2d_2 (MaxPooling2 (1, 6, 6, 256) 0 _________________________________________________________________flatten (Flatten) (1, 9216) 0 _________________________________________________________________dense (Dense) (1, 4096) 37752832 _________________________________________________________________dropout (Dropout) (1, 4096) 0 _________________________________________________________________dense_1 (Dense) (1, 4096) 16781312 _________________________________________________________________dropout_1 (Dropout) (1, 4096) 0 _________________________________________________________________dense_2 (Dense) (1, 10) 40970 =================================================================Total params: 58,299,082Trainable params: 58,299,082Non-trainable params: 0_________________________________________________________________ 3.2 VGG 2014 年，牛津大学计算机视觉组（Visual Geometry Group）和 Google DeepMind 公司的研究员一起研发出了新的深度卷积神经网络：VGGNet，并取得了 ILSVRC2014 比赛分类项目的第二名，主要贡献是使用很小的卷积核 (3×3) 构建卷积神经网络结构，能够取得较好的识别精度，常用来提取图像特征的 VGG-16 和 VGG-19。
…
6, activation=&#x27;relu&#x27;), # 随机失活 tf.keras.layers.Dropout(0.5), # 全连接层：10个神经元，激活函数是softmax tf.keras.layers.Dense(10, activation=&#x27;softmax&#x27;)])) return net# 网络实例化net = vgg(conv_arch) 我们构造一个高和宽均为 224 的单通道数据样本来看一下模型的架构： 12345# 构造输入X，并将其送入到net网络中X = tf.random.uniform((1,224,224,1))y = net(X)# 通过net.summay()查看网络的形状net.summay() 网络架构如下： 1234567891011121314151617181920Model: &quot;sequential_15&quot;_________________________________________________________________Layer (type) Output Shape Param # =================================================================sequential_16 (Sequential) (1, 112, 112, 64) 37568 _________________________________________________________________sequential_17 (Sequential) (1, 56, 56, 128) 221440 _________________________________________________________________sequential_18 (Sequential) (1, 28, 28, 256) 1475328 _________________________________________________________________sequential_19 (Sequential) (1, 14, 14, 512) 5899776 _________________________________________________________________sequential_20 (Sequential) (1, 7, 7, 512) 7079424 _________________________________________________________________sequential_21 (Sequential) (1, 10) 119586826 =================================================================Total params: 134,300,362Trainable params: 134,300,362Non-trainable params: 0__________________________________________________________________ 3.3 GoogLeNet GoogLeNet 的名字不是 GoogleNet，而是 GoogLeNet，这是为了致敬 LeNet。GoogLeNet 和 AlexNet/VGGNet 这类依靠加深网络结构的深度的思想不完全一样。GoogLeNet 在加深度的同时做了结构上的创新，引入了一个叫做 Inception 的结构来代替之前的卷积加激活的经典组件。GoogLeNet 在
…
utputs = tf.keras.layers.Dense(10,activation=&#x27;softmax&#x27;)(x)# 使用Model来创建模型，指明输入和输出model = tf.keras.Model(inputs=inputs, outputs=[main_outputs,aux_output_1，aux_output_2]) model.summary() 12345678910111213141516171819202122232425262728293031323334353637383940414243444546Model: &quot;functional_3&quot;_________________________________________________________________Layer (type) Output Shape Param # =================================================================input (InputLayer) [(None, 224, 224, 3)] 0 _________________________________________________________________conv2d_122 (Conv2D) (None, 112, 112, 64) 9472 _________________________________________________________________max_pooling2d_27 (MaxPooling (None, 56, 56, 64) 0 _________________________________________________________________conv2d_123 (Conv2D) (None, 56, 56, 64) 4160 _________________________________________________________________conv2d_124 (Conv2D) (None, 56, 56, 192) 110784 _________________________________________________________________max_pooling2d_28 (MaxPooling (None, 28, 28, 192) 0 _________________________________________________________________inception_19 (Inception) (None, 28, 28, 256) 163696 _________________________________________________________________inception_20 (Inception) (None, 28, 28, 480) 388736 _________________________________________________________________max_pooling2d_31 (MaxPooling (None, 14, 14, 480) 0 _________________________________________________________________inception_21 (Inception) (None, 14, 14, 512) 376176 _________________________________________________________________inception_22 (Inception) (None, 14, 14, 512) 449160 _________________________________________________________________inception_23 (Inception) (None, 14, 14, 512) 510104 _________________________________________________________________inception_24 (Inception) (None, 14, 14, 528) 605376 _________________________________________________________________inception_25 (Inception) (None, 14, 14, 832) 868352 _________________________________________________________________max_pooling2d_37 (MaxPooling (None, 7, 7, 832) 0 _________________________________________________________________inception_26 (Inception) (None, 7, 7, 832) 1043456 _________________________________________________________________inception_27 (Inception) (None, 7, 7, 1024) 1444080 _________________________________________________________________global_average_pooling2d_2 ( (None, 1024) 0 _________________________________________________________________dense_10 (Dense) (None, 10) 10250 =================================================================Total params: 5,983,802Trainable params: 5,983,802Non-trainable params: 0___________________________________________________________ 3.4 ResNet 网络越深，获取的信息就越多，特征也越丰富。但是在实践中，随着网络的加深，优化效果反而越差，测试数据和训练数据的准确率反而降低了。 针对这一问题，何恺明等人提出了残差网络（ResNet）在 2015 年的 ImageNet 图像识别挑战赛夺魁，并深刻影响了后来的深度神经网络的设计。 ResNet 网络中按照残差块的通道数分为不同的模块。第一个模块前使用了步幅为 2 的最大池化层，
…
